ann_model.pth (torch, 121944 bytes, 7 tensors)

fc1.weight f4 [128, 150]
00000000: e42e f33c 3c07 a73d a8e4 8bbd f043 06bd
00000010: b1b9 4bbc 5ada 17bd b17a 793b 07ba 43bc
00000020: 4248 6bbc 00fb 073e 5bf2 a1b9 97a7 0fbd
00000030: 57e5 e13d de7d 69bd 5c64 573b 2a36 b93c
00000040: 21cd 99bd 4af0 013e 69d2 8a3d 6383 44bc
00000050: 30d2 6fbd 69c5 013c 0458 043d 3517 22bd
00000060: c5cf 86bc b4fd 143d 8a5e d43c 95a1 f23c
00000070: dc34 343d a7de babb 15ae 583c c635 5d3d
00000080: e07c 46bd 85c2 bb3d c4e2 273c 4236 4fbc
00000090: 70bb bd3b 4cd8 7d3d f98a 883d 9e56 3cbd
000000a0: 75b5 5cbd e221 283d 0aca 53bd e501 a0bd
000000b0: ef74 873d ee95 bebd 5b06 113d 376b a2bc
000000c0: 4c88 e23b 2aec bbbc 37dd 0f3c 9a8b eebc
000000d0: cc54 873d 96a6 31bb 4d09 28bd c15d 9cbd
000000e0: 41c1 bdbd 6f14 223d 8471 c7bc 331c 673d
000000f0: d388 0dbc 74d0 ed3b 641b b6bd 28c9 14bd
00000100: 7a4f 09bb ea29 3337 3302 043e 2214 a83d
00000110: 1ab6 4b3d 8264 e03c 02c9 873c f623 9137
00000120: e1c9 92bd 7c39 4c3d c30a ad3d 270a 57bd
00000130: 96ea e03d be07 fa3d 9849 333c 4211 fe3c
00000140: 718b ed3c f7ef 50bc e6ca b23d f495 7cbd
00000150: 4243 9abd 7a30 023e 6970 813a 67c4 a4bc
00000160: 2788 9f3d b85c e2bd 6f09 59bd 9177 1dbb
00000170: b534 8c3d 336c 983b 1f12 983d ac66 a9bd
00000180: 0232 893d f767 efba 5fe2 e53d fe11 9e3d
00000190: 4359 c43c a3b2 3fbd cd53 84bd aec5 00bd
000001a0: a63a 10bd 080c 823d e2b2 33bd d931 013e
000001b0: 68c5 3d3b 34d3 e4bc 7847 98bc ca57 96bd
000001c0: 6f40 9abd 26a7 2a3d b6f1 31bd 6095 2ebc
000001d0: 5042 cf3d ecca 553c d8d8 7ebd 07ec 643b
000001e0: f374 173d b317 aebc a4dd 55bd 89df 833c
000001f0: 8bd8 e8bd a1e2 4fbd 2ee2 f63c ae13 3fbd
00000200: 3311 e93d 1475 0e3e 120f 543d b4f7 3d3c
00000210: 8d07 bd3d b86f efbd 9076 e1bd 7180 85bd
00000220: 6474 5ebc 0eb7 dfbd 8c8b 2bbd 3df9 363d
00000230: b003 d2bc 580b d6bd dc75 5a3d 200a 613c
00000240: 0fdd aebd c64a da3c 2524 c13d c082 dfbc
00000250: 13d6 fc3d 617d dabd 41ae de3d 5d19 943c
00000260: 43b3 9ebd 7114 d93d d8af 4bbd 9ee2 41bd
00000270: 9dcb 2a3d dae1 afbd ec86 e53b 1d40 dfbc
00000280: fcfd cebc a0f6 963c 247d 413d a8e7 6b3d
00000290: 48ed dbbc d9e3 ddbd 9c60 dc3c be63 d73c
000002a0: b77c 51bd 008b 123d 2983 843d 2501 4e3d
000002b0: 8fdd 6ebd 9d3e d93d 5a37 b8bb 068c 313d
000002c0: 1870 b23c ab01 67bd b1d9 0dbd bd78 65bd
000002d0: 7342 d43c 2bf9 443c d17f 193b a753 37bb
000002e0: ddaf 78bd 6272 4bbc 17bc 773d c831 8a3c
000002f0: 31df f1bb 37b0 d6bc 8884 9a3d d3a8 8b3d
00000300: 5a30 623c 2221 8fbd 868f d7bc 1411 d1bd
00000310: 8863 423d b200 b8bc 1f86 27bd b8a2 573d
00000320: f6f5 6bbd bfae 69bd 8d76 5c3d 23ce 91bc
00000330: d784 1cbd f211 8a3d 8c5e 92bd f435 96bc
00000340: 9c3b 0c3c a4a3 c4bc 45f0 c33c 57f1 9bbd
00000350: 468f d4bd ec38 983d 8ab5 ce3d 83d3 cc3b
00000360: 7c3f 6eba 5643 2bba f9df 38bd 2f0c 023e
00000370: 1a45 b8bd 432d e73d c028 3d3d 0b3a 8abd
00000380: 74f6 4b3d 5232 40bd c8ee 05bd 653b aebc
00000390: e273 83bd 58b9 c63c 1f08 ccbc c2c0 ee3d
000003a0: c0cc f13d b52d 9b3d 5df7 a0bd 6d03 a2bd
000003b0: 6e09 973c 724a 533d ac2e fabc 261e b43d
000003c0: 7050 84bd 8a1b d5bd fc96 4f3d f3e6 e43c
000003d0: fd6b 82bd fb60 b03d c81d 513c a4c8 9b3d
000003e0: 6927 273d a2d5 e0bc 4f90 ca3d 6bb0 c8bc
000003f0: 959a 4fbc 1d0a 7c3d 89d5 94bc 7c63 113d
0.029685445 0.08155677 -0.06830722 -0.032779634 -0.012434409 -0.03707347 0.0038067515 -0.011946208
-0.014360489 0.13279343 -0.00030888882 -0.035071936 0.11030071 -0.057004802 0.0032866215 0.022608835
-0.07509828 0.12689319 0.06778414 -0.011994216 -0.05855006 0.007920601 0.0323105 -0.039572913
-0.016456494 0.036374763 0.025923986 0.029618064 0.043995723 -0.0057028118 0.013225098 0.05400636
-0.048458934 0.09167961 0.010246936 -0.012647213 0.0057901666 0.061973855 0.06667132 -0.045981042
-0.05388399 0.04104794 -0.05170635 -0.07812861 0.066141 -0.093059406 0.03540645 -0.019826515
0.0069132205 -0.02293976 0.008780769 -0.029119302 0.066079706 -0.002710735 -0.041024495 -0.0763507
-0.09265376 0.03957027 -0.02434612 0.056423377 -0.0086385785 0.0072575156 -0.08891943 -0.03632465
-0.0020951913 1.067899e-05 0.12891464 0.08206965 0.049734212 0.027391676 0.01657534 1.7302093e-05
-0.071674116 0.04985951 0.08449318 -0.052499916 0.10982244 0.12208508 0.010942839 0.031014089
0.028997155 -0.012752525 0.08730106 -0.061666444 -0.0753236 0.12713805 0.000987542 -0.020113183
0.07789641 -0.11052841 -0.052987512 -0.0024027566 0.068459906 0.00465157 0.07425331 -0.08271536
0.06698991 -0.0018265237 0.112248175 0.077182755 0.023968345 -0.04680122 -0.06461296 -0.031438522
-0.03521218 0.06349951 -0.043871768 0.12616672 0.0028956775 -0.02793274 -0.018588766 -0.07340963
-0.07531821 0.04166331 -0.043443404 -0.010655731 0.1012007 0.013048869 -0.062218517 0.0034930722
0.036976766 -0.021251535 -0.052213326 0.0160978 -0.11369427 -0.05075324 0.030137148 -0.046649627
0.113802336 0.1391185 0.051772185 0.011594702 0.09229956 -0.116912305 -0.11008942 -0.06518639
-0.013577554 -0.10923587 -0.04188113 0.044671286 -0.025636524 -0.104513824 0.053335056 0.013735324
-0.08538257 0.026646983 0.09430722 -0.027284026 0.12345519 -0.106684454 0.1087308 0.0180785
-0.07749035 0.10599602 -0.049728245 -0.04733526 0.041698087 -0.08588 0.0070046093 -0.027252251
-0.025267594 0.018428147 0.047238484 0.05759397 -0.026846543 -0.10834474 0.026901536 0.026292678
-0.051144328 0.035777092 0.06470329 0.05029406 -0.058316763 0.10607646 -0.005621833 0.043346427
0.021781966 -0.056398075 -0.034631435 -0.056023348 0.025910592 0.012022297 0.0023422132 -0.0027973445
-0.06071459 -0.012417408 0.06048211 0.01686944 -0.007381343 -0.026207073 0.075448096 0.0681931
0.013805473 -0.069887415 -0.026313554 -0.102083355 0.0474582 -0.022461269 -0.040899392 0.052645415
-0.057607614 -0.057051416 0.053823996 -0.017798489 -0.038212623 0.06741704 -0.0714694 -0.018336274
0.008559134 -0.024003811 0.02391828 -0.07614391 -0.1037889 0.07432732 0.100932196 0.0062508
-0.00090884394 -0.0006533166 -0.045135472 0.1269996 -0.08997555 0.1128793 0.04618144 -0.06749352
0.049795583 -0.04692299 -0.032698423 -0.021268556 -0.06418587 0.0242583 -0.024906216 0.116578594
0.11806631 0.07577077 -0.07859681 -0.0791081 0.018437114 0.05158467 -0.030539833 0.08794813
-0.06460655 -0.10405643 0.0506811 0.027942156 -0.063682534 0.086122476 0.012763448 0.076066285
0.04080907 -0.027445618 0.09890806 -0.024498185 -0.012671133 0.061533082 -0.018168228 0.035495266

fc1.bias f4 [128]
00000000: cb95 ae3b ffad a73d 9719 ab3d 3ea6 c23d
00000010: ac83 093d f361 103d 5c01 7c3b a869 b3b7
00000020: f962 5e3d d7f3 e8ba 73b2 c939 f7a7 65bc
00000030: 1086 89bd ab92 0a3e 0614 9c3d 2df6 933c
00000040: 2419 2dbd 92bf ee3d c244 8bbd 3f7d 2d3b
00000050: ab9a a9bc 380b 063b 44ac d63d c5cd 2abd
00000060: 153d d73d b80f b83c 483c 903d ac17 953c
00000070: 712b 423d 3520 6ebd 5ce7 ae3b a5b4 773d
00000080: 67ea d43d 9867 d7bc 7a83 023e e6a8 d53d
00000090: 2454 4fbc 3a3e 813d 6f03 c33d b2ae 9abc
000000a0: f567 f53c 3128 e03c 9742 8ebd 0938 3c3c
000000b0: 0adf 0e3c 8ab0 223d 0c1c ae3d 1213 a4bc
000000c0: 9c67 7abd 4a44 30bd 705d 0cbd 368f 68bd
000000d0: 4ff4 e3bc 5880 0cbd fc1d ca3d 3497 c93c
000000e0: 1076 9dbd 40b7 24bd 33eb d33d f35f 8dbc
000000f0: 5e90 7abc d531 f33d f3d7 b43c e133 6d3d
00000100: 2dca 063e a527 9cbc aa65 68bd 93b8 0f3d
00000110: 60fc a7ba 621a f83d a176 3f3d 52a6 2c3b
00000120: 0bad 75bd 57fb 5f3c 91c4 aa3d 9f52 92bd
00000130: 14bb a53c 51fb e5ba a640 0b3e 05d2 61bc
00000140: 5640 ad3b 7e36 b1bc 1c7d 1cbd 67cc ccbc
00000150: 2759 8bbd ae0b b2bc 0744 feba 0da4 7fbd
00000160: 59c3 593d bf00 163d dd0d 25bd 0f37 21bd
00000170: a747 36bd d29d 76bd 8445 50bb b129 db3d
00000180: 7fd3 9b3c c96b 5b3d a7d6 573d b96a 16bd
00000190: 72b7 9bbc 4446 313d 08be 0abd 87e1 71bc
000001a0: b75f 2e3d a638 043d f171 87bd 5fab c5bb
000001b0: bb8d 943d 6ca0 7c3c 3ee5 923d 6e06 6fbd
000001c0: bb5f cc3d 4b3a 89bc 31a5 c43c f7e3 853d
000001d0: fb45 fc3d 198c b93d 06e7 ad3d 346f db3c
000001e0: a06d 503d 724a a7bd 12b4 033d 81f4 cb3c
000001f0: 4dea 073b da02 b1bb 7a52 003d e573 f03d
0.0053279153 0.08187484 0.0835449 0.095043644 0.033572838 0.03524966 0.0038452959 -2.1387663e-05
0.054293606 -0.0017772865 0.00038470663 -0.014017097 -0.067150235 0.13532512 0.07621007 0.018061722
-0.042260304 0.11657633 -0.06800224 0.0026472358 -0.020703634 0.0020453464 0.10482076 -0.041700143
0.10509697 0.022468433 0.07042748 0.018199764 0.04740471 -0.058136184 0.005337639 0.06047501
0.10396271 -0.026294515 0.12745467 0.104326054 -0.012654338 0.06310697 0.09522139 -0.01888213
0.029956797 0.027362915 -0.06946295 0.011487969 0.008720169 0.039719142 0.08501443 -0.020028625
-0.061133966 -0.043033876 -0.034268796 -0.0567772 -0.027826456 -0.034302086 0.09869 0.024608232
-0.07688534 -0.040213823 0.10347595 -0.017257666 -0.015293209 0.11874739 0.022075629 0.057910804
0.13163061 -0.019061873 -0.05673758 0.035088133 -0.0012816302 0.12114407 0.046743993 0.0026344252
-0.05997948 0.013670764 0.08338273 -0.07144665 0.020230807 -0.0017546212 0.1359888 -0.013782983
0.0052872105 -0.02163243 -0.03820525 -0.02499981 -0.06804114 -0.021734085 -0.0019398936 -0.06241231
0.053164814 0.036621805 -0.040296424 -0.03935915 -0.044501927 -0.060209103 -0.0031779716 0.107013114
0.019021748 0.05356959 0.052694943 -0.036722872 -0.019008372 0.0432799 -0.033872634 -0.014763243
0.04257175 0.032280587 -0.066135295 -0.006032392 0.072535954 0.015419107 0.07172631 -0.05835574
0.09979197 -0.016751429 0.02400455 0.065376215 0.12318035 0.09059925 0.0849133 0.026786424
0.050885797 -0.08168496 0.03215415 0.024896862 0.002073902 -0.0054019513 0.031328656 0.11740855

fc2.weight f4 [64, 128]
00000000: 7b2c ad3d 4537 c73d f5c5 0d3d 79ef c13d
00000010: cb7b 4ebd b8e4 f33c 998d ae3d 4783 ea3d
00000020: dd7e 023e bc44 673d c36f a93d ff1d e23c
00000030: 9ff7 383c a929 293e 37bf 51bd 3d3e b3bc
00000040: a78c c53d deb2 7c3d 579b db3d a91e 6b3d
00000050: 2f56 a53d 467c 4b3d 9474 0f3e e49f 8d3c
00000060: a0d0 d93d c74c 943d 5b91 aabc ed32 3e3d
00000070: 5cb4 683d ebe8 a93d fdfc 503d efa4 213d
00000080: ab6d 033e 205f 553d f3a4 973d 1467 0c3e
00000090: 0e76 763d c5e6 e4bc 7c3e 053d d2e4 fabb
000000a0: 7ddc a83d 455b 8e3b ca20 063d 48c2 f6bc
000000b0: cce6 ae3d f9f5 613d c14e 103d 7674 9a3d
000000c0: 785f 283c 12e7 ec3d 13fb 993d 8bb4 e63c
000000d0: 2469 fc3d d7e0 f83b 802c 533d 9fcd c53d
000000e0: 7690 c03d adce 8dbc 973e ae3d f347 a7bc
000000f0: e26f 4c3d 6417 a33c 4aa4 23bc 74c5 403d
00000100: 4e8a 3f3d c648 3e3d a73c f63c 6b1b 543d
00000110: 8d5b 263d ac53 a33c 7956 d13d e954 0d3e
00000120: 0032 023e 5528 fa3d cca0 063e 796a 4e3b
00000130: 0bdc 5d3d 9b1a 283d 433c 423d b136 903d
00000140: f199 033d 9cc4 36bc f6c6 953c a366 fa3d
00000150: 7a79 b43d 7f59 5bbd b0ed 8ebc 3989 553d
00000160: 96d8 b53c e035 d03d 04ea babc 8206 913d
00000170: 3085 4d3d 3fe9 9fbc e519 64bd 8b1d bf3d
00000180: 4f94 5fbc b571 d63d 6140 703d 3a1d 5fbc
00000190: 0ecd 823d 924a 20bc adc8 dc3c 2b9a 64bd
000001a0: 80f0 803d e4e4 003e f8ab 743d 32f2 2a3e
000001b0: a63d 843d 98f9 a13d b0d3 14bd fff9 803d
000001c0: 3ce3 443c 92b9 62bb 1ca8 8dbb d550 65bc
000001d0: df26 813d 30b8 68b9 3226 8d3c 8aff b43d
000001e0: 0581 823a ad25 2c3d 004d 7d3d fd0a 83bc
000001f0: f2c6 da3d c3d9 e93d 88f0 da3d 4f66 243e
00000200: 7f12 1bbc 06fe 873d 3eb6 b93d e0ae e0bc
00000210: a9e9 273d a4a0 5fbd 31ea b73c ab8e 71bd
00000220: 4f0b 893d 3e8b c93d a8d9 9a3d 72c8 9cbc
00000230: 9da9 393d 7d3d c7bc 4c6d ce3d ab6f 5f3d
00000240: 7b05 8fbd ff31 0e3d 84a1 d33d 6a19 013d
00000250: 53b4 c4bd 5e20 f23d 017f 963d 22a5 a439
00000260: 4d52 a2bb 4607 13bc 08b6 24bc 6458 013e
00000270: 6ffd 483d 5886 483d 4e2c 1f3b cbbc 01bd
00000280: 22d4 583d 0bf0 21bd 910b cbbd fc6d a9bc
00000290: 6ab5 8d3c 7b97 ab3c 8441 8ebd 1d1f 043d
000002a0: 1327 833d 1cbe 6b3d 450c f03c 8f30 2e3c
000002b0: 9576 edbd 4b9c 06bd f80e 263c d22c a8bb
000002c0: 0e31 29bc 55f0 fe3c 8514 a23d 1e2d 37bd
000002d0: 19e1 6b3d f475 73bd 1565 dbbb 505c ce3d
000002e0: 7d2a d33b 5a98 8cbc c9e9 1ebd 214a 2b3d
000002f0: af5e 473c bb72 3a3d 2a53 debb 1722 e33c
00000300: cdf0 523d c8e4 32bd cd96 373d 4513 5bbb
00000310: a8ed 843d 7257 ed3c fdcd db3c 5a03 bcbc
00000320: 6823 f03d e292 073c d70f 97bd 40b2 4c3b
00000330: 5182 533c a1b1 1cbd 65fc aa3a d4cc dc3c
00000340: 63a0 393d df09 37bd 4b0b c93d 02ba bb3d
00000350: 82c6 ce3c cd86 bebb 8732 dbbc a957 cd3d
00000360: 5549 973c 162c 04bd 9dea 95bb 7ee6 ea3d
00000370: 59f0 f63d c697 d83d a78f 923d 00d6 d03b
00000380: d459 c53d b5ab fc3c d9d9 a13d 36b3 6abc
00000390: d91c 963d dd5f 0f3b a181 17bd 66f1 be3d
000003a0: a9a4 a43d 88b1 1b3e dea1 003e 2786 6f3d
000003b0: b1d5 ac3c 38d9 203d 5bcb b0bc 3404 9abc
000003c0: 3105 2dbd dc1b 9f3b 19fe dbbc 7467 bbbd
000003d0: a6a7 37bc 90ec 863d a7a5 683d a4a0 a73d
000003e0: 5483 0f3e 788a 523d a660 8e3c 8a87 9b3d
000003f0: 7d7d 8d3c f30c 103e cc37 ba3d 0f62 f23c
0.084557496 0.09727339 0.034612615 0.09469504 -0.050411027 0.029772148 0.08523101 0.114508204
0.12743707 0.056462035 0.0827327 0.027602194 0.011289506 0.16519798 -0.051207747 -0.021880263
0.09645968 0.06169402 0.10722988 0.057402287 0.08073079 0.049679063 0.14009315 0.017288156
0.10635495 0.072412066 -0.020821264 0.046435285 0.05681263 0.08296379 0.05102252 0.039463934
0.12834804 0.05209267 0.074045084 0.13711196 0.06017118 -0.02794207 0.032530293 -0.007656672
0.0824518 0.0043443763 0.032746114 -0.030121937 0.08540115 0.05516622 0.035231356 0.075417444
0.010276668 0.11567511 0.07518592 0.028162261 0.123247415 0.0075951624 0.05155611 0.0965836
0.09402554 -0.017310465 0.08508032 -0.02042005 0.049911387 0.019908614 -0.0099879 0.047063306
0.046762757 0.04645612 0.030058218 0.05178396 0.040614653 0.019937359 0.102215715 0.13801922
0.12714386 0.12214724 0.13147277 0.0031496568 0.054164927 0.041040998 0.04742075 0.070416816
0.03212923 -0.011155274 0.018283349 0.12226608 0.08812232 -0.053552147 -0.017447323 0.05213282
0.022198003 0.10166526 -0.022816665 0.070813194 0.050175846 -0.0195204 -0.055688757 0.09331807
-0.013646199 0.10470907 0.058655147 -0.013617808 0.06386767 -0.009783404 0.026951158 -0.05581109
0.06295872 0.12587315 0.059734315 0.16693953 0.06457071 0.07908934 -0.036334693 0.06297683
0.0120170675 -0.0034595472 -0.0043230187 -0.013996323 0.06306242 -0.0002219386 0.017230127 0.08837803
0.0009956664 0.042028118 0.06184101 -0.01599645 0.10682477 0.11418488 0.10690409 0.16054653
-0.009464859 0.06640248 0.09067963 -0.027427137 0.04099432 -0.05459656 0.022450538 -0.05897395
0.0669161 0.098410115 0.07561046 -0.019138549 0.04532777 -0.024321312 0.100794405 0.054549854
-0.06983467 0.03471565 0.10333541 0.031518377 -0.096047066 0.1182258 0.07348443 0.0003140355
-0.0049536587 -0.008973902 -0.010053165 0.12631375 0.049069818 0.048956245 0.0024287882 -0.031674188
0.05293668 -0.039535563 -0.099143155 -0.020682327 0.017298419 0.020946255 -0.0694609 0.032256234
0.06403937 0.05755435 0.029302726 0.010631694 -0.11594883 -0.032863896 0.010135405 -0.005132296
-0.010326637 0.031120459 0.0791407 -0.04472076 0.057587717 -0.05943866 -0.0066953995 0.10076201
0.006444274 -0.01716249 -0.038797174 0.04181874 0.01216857 0.04551957 -0.0067848163 0.027726216
0.051499177 -0.043675214 0.04482155 -0.0033428234 0.06490642 0.028972361 0.026831621 -0.022950817
0.11725503 0.008274766 -0.07376068 0.0031234175 0.012909488 -0.038255338 0.001304519 0.026953138
0.045318972 -0.04468715 0.09816607 0.091663375 0.02524114 -0.0058144093 -0.026757492 0.100264855
0.018467585 -0.032268606 -0.004575087 0.11469744 0.120575614 0.105758235 0.07156306 0.006373167
0.09636274 0.030843595 0.07902879 -0.014324954 0.07329721 0.0021877207 -0.036988858 0.09323387
0.08039219 0.15204442 0.12561747 0.058477547 0.02109799 0.039269656 -0.021581342 -0.018800832
-0.04224128 0.004855616 -0.026854562 -0.091505915 -0.011209404 0.065880895 0.056798603 0.08184937
0.14014941 0.051401585 0.01738007 0.075942114 0.017271752 0.1406744 0.09092674 0.029587774

fc2.bias f4 [64]
00000000: 4864 303d a972 73bc c341 a83d b7c3 2ebd
00000010: 76ff 533d c5ca 80bc 299d c63d 6540 943c
00000020: 6875 2bbd 16a3 893d 3e23 32bc 5149 63bd
00000030: a65c 07bd adf6 973c 5671 b43d 2c54 75bc
00000040: 62b6 033d a470 523d 74b2 a13d 0478 4b3d
00000050: 6158 f53d 1ad5 91bd 436b f43c e4c2 31bd
00000060: 6219 86bd 494f 173d ed90 a23d 3d7c c83d
00000070: 31f5 0f3d 9967 8b3d 8500 f33b e5fa 7fbd
00000080: 6959 863c 932e 443d d422 8b3d db27 62bd
00000090: 7ae2 223c 3a0a 4f3d e78d 843d 84bd ccbc
000000a0: c014 89bd e2d9 32bb 6ae1 f03d 414e 49bd
000000b0: c9bf d03b 9dda a43d 8f33 293d 6765 f43d
000000c0: 27c1 0c3e 0c21 eb37 6c47 873d a7cc 49bd
000000d0: 9ba2 cb3b 37a3 c33d e805 1a3d 1aef 2fbd
000000e0: 787b 0f3e ecc1 633d 89a7 9c3c 51de 82bd
000000f0: 838c e73d 1fa1 aebb 2baf 2d3d 7346 013e
0.043064386 -0.01485888 0.08215668 -0.042667117 0.0517573 -0.015721688 0.09697945 0.018097112
-0.041860014 0.06720559 -0.01087266 -0.05548984 -0.03304734 0.018550241 0.088106796 -0.014973681
0.032156356 0.051376954 0.07895365 0.049675003 0.119797476 -0.07120724 0.029836303 -0.043398753
-0.0654781 0.036940847 0.07937799 0.097893216 0.035145942 0.06806869 0.0074158334 -0.06249513
0.016400056 0.04789598 0.06793752 -0.05521379 0.0099416915 0.050546862 0.06472378 -0.024992712
-0.06693411 -0.0027290513 0.11761744 -0.049146894 0.006370519 0.0804951 0.041308936 0.119334035
0.13745557 2.8029572e-05 0.066054195 -0.049267437 0.0062144524 0.09552615 0.03760329 -0.042952634
0.14011943 0.05560486 0.019122856 -0.0639006 0.11306097 -0.0053292657 0.04240338 0.1262453

fc3.weight f4 [32, 64]
00000000: ef8e b13d 6cf4 8f3c 5db3 e53d b661 ba3c
00000010: cdbe 1b3c c1e5 bdbd d079 d33d a681 ef3d
00000020: 9dd4 0f3e 7ee7 b63d f611 c4bd ae2b 163e
00000030: 1962 c13d b852 2c3d 7e62 4d3c 7d08 88bc
00000040: 3d09 2cbd 3ef8 ac3d cd28 29bd 7559 cb3c
00000050: 2fc2 ff3c 6423 8b3d 8e94 c6bd 41f4 763d
00000060: 5f6e 8ebc 1575 bcbd c358 503c 913e 44bd
00000070: 5185 2c3e 86bc 88bd 68a2 a8bc 2818 813d
00000080: 9fb6 17bd 39bd 7dbd aa9c a6bd 690c 9a3d
00000090: 9a71 fd3d f54c 013e 40ee e03d 39c0 033e
000000a0: eab7 dd3d 61ae 94bc 3d89 073b 76c6 ef3d
000000b0: f566 98bd f3d0 6abd 54f4 74bd f7bb 893d
000000c0: 503a f8bc 7ab1 bcbd 217b 993c 5735 0a3e
000000d0: c61d 323e 4249 14be 21c6 323d 2c56 f1bc
000000e0: d262 16be 9af1 16bd 2a2f 163e 60d7 04bd
000000f0: 2722 c6bd 74e8 af3c 034b 01bd 00a5 2dbd
00000100: 10c5 da3d 713f e93d 535c 8fbc de3b a0bc
00000110: 0325 8fbd d8c2 143a b3ce 963d 4e57 48bd
00000120: 4e8b 76bd 41fa 16bd 2c1e 04be 261b 08bd
00000130: 8f3f 3d3d e8a5 f93b 6773 f03d c9fe 843c
00000140: 6f30 073e 4691 30bc dae1 223e 1ab0 b8bc
00000150: 2395 c33b a681 a7bd ce00 21bd 5933 873d
00000160: 2cc3 073e 554c 0bbe 4d0f 21bc aeef 26bd
00000170: 4fce dd3d c587 6abb fdb9 e63d 865d 363d
00000180: baa2 1e3e 0f30 e5bc ad47 db3d 83db 73bd
00000190: f959 8c3d 4c4c 983d ebd1 1c3e cef8 a53d
000001a0: c15d d73d 6ec4 9dbd 3283 d7bd c442 173e
000001b0: 6707 c0bd 072f adbd e65d e83d 2335 6ebd
000001c0: fcde 99bd 91c6 7c3d 7bb7 e1bd e4fc bdbc
000001d0: 8af0 c93d af60 8ebd 26c8 ad3c 4cd9 073e
000001e0: 87c7 0ebe ff79 fe3d d801 e63d 5e3e da3c
000001f0: 863e 03be e0c6 a13d 2170 8d3d 9c92 bf3d
00000200: 27a6 52bd 0c7a 123e 451c 813d 4f6c 213d
00000210: f4a1 c83d 07d2 99bd 7b07 cc3d 0deb 153e
00000220: 7dbe 1b3c fa60 163e c6b6 2dbe 98ad 5e3d
00000230: 69e6 6ebd c997 093e 715e 703b ba2d 0e3e
00000240: 0404 053e 55df 783d 5da5 42bd db20 a53c
00000250: 6ea4 0ebe 2d73 b03b e91e c5bb 90c8 9b3d
00000260: 3a89 e63d c5e3 8bbd 1161 893d d566 7e3d
00000270: 2012 6aba f2fd a0bd 7e8c 113d 9957 a43d
00000280: 00ba 1ebd 87dd 98bd 2e74 eabd 7f85 243e
00000290: a46e 8b3d 40a2 cc3d f102 853c 138d 88bd
000002a0: 1ce3 d1bc afd9 e2bd 1f01 d23d a1c7 313d
000002b0: cfbc bbbc 90f8 853d 2834 823d 19fe cebd
000002c0: 5e74 45bb e541 d23d 5164 0bbe 2281 11bc
000002d0: 28a9 823d 4650 2fbc 0e2f 33bd 353e 6bbd
000002e0: f4be d6bd af0e 79bd f7f6 323c edc7 433e
000002f0: 9c9f a03d dd35 bcbc 6e1e 1b3e 2c27 f9bd
00000300: 3e68 ed3d 75a4 6abd 04e1 e13d 4d97 e9bd
00000310: 59c3 0abe 8d5a 273e cb00 363e 6472 c03d
00000320: 0200 adbd ee03 533d 42b4 093c d7bd 91bd
00000330: a86d 76bd 34fa 0ebd ab70 b2bd e2e7 b63d
00000340: ba87 87bd 1e65 7dbd 07bb 0a3e d430 5d3d
00000350: c155 163b e812 29bd de21 333e 448e 793d
00000360: de37 a4bc 6b20 9dbc 7c8a 203e 369b 143e
00000370: e9d2 1dbe 87ec 9a3d 433c e7bd 1429 bbbd
00000380: 3032 94bd 3363 b73d bf2e 283e 1931 86bd
00000390: 2a8c f8bd df7e 093d 76ca d6bd 1e01 ad3d
000003a0: ff48 06bd 12a2 b9bb 90ee 27bd 7108 dcbd
000003b0: 8dce ca3d 682f b43d c1df 9e3d 0ce3 1c3e
000003c0: 5894 59bd 882d 483e 36b8 e03d 6ea8 e7bd
000003d0: 9431 3dbd 3973 863d 97e3 41bc c3ca a3bd
000003e0: 9f89 bb3c b5e0 35bc 2546 c63a e546 0e3d
000003f0: d743 e43d 33e1 8fbd 3422 a43c 405c f93d
0.086698405 0.017572604 0.112158515 0.02275167 0.00950594 -0.09272338 0.10325968 0.1169465
0.1404595 0.089308724 -0.09573738 0.146651 0.09442539 0.042071074 0.012535689 -0.01660561
-0.042000998 0.08445786 -0.041298676 0.02482293 0.031220524 0.067938596 -0.09696303 0.060291532
-0.017386613 -0.09202019 0.012716475 -0.04791123 0.16847731 -0.06676583 -0.020585254 0.063034356
-0.037039395 -0.061948035 -0.0813535 0.07521898 0.123751834 0.12627013 0.109829426 0.12866296
0.108260944 -0.018149557 0.0020681166 0.11707775 -0.074415125 -0.057328176 -0.059803322 0.067253046
-0.030301243 -0.092135385 0.01873547 0.1349691 0.1739417 -0.1448107 0.04364598 -0.029460035
-0.14686134 -0.036851503 0.14666429 -0.03243196 -0.09674483 0.021473147 -0.031565677 -0.042393684
0.10682118 0.113890536 -0.017500078 -0.019559797 -0.06989481 0.0005674786 0.073636435 -0.048911385
-0.060191445 -0.036859754 -0.12902135 -0.033229016 0.046203192 0.0076186545 0.11740761 0.016234772
0.1320207 -0.010776823 0.15906468 -0.02254491 0.005968706 -0.08179025 -0.039307408 0.06601591
0.13258046 -0.13603337 -0.009830308 -0.04075592 0.10830366 -0.0035786491 0.11265943 0.044522785
0.15491763 -0.027977018 0.107070304 -0.059535515 0.068530984 0.074364275 0.15314452 0.08104096
0.10515929 -0.077034816 -0.105230704 0.14771563 -0.09376412 -0.084562354 0.11346035 -0.058156144
-0.07513234 0.061712805 -0.11021324 -0.023191877 0.09860332 -0.06952035 0.021213602 0.13266486
-0.13943301 0.12425613 0.112308204 0.026641067 -0.1281682 0.078992605 0.069061525 0.093541354
-0.051427986 0.1430437 0.0630422 0.03940993 0.09796515 -0.07510763 0.09962364 0.14640446
0.009505865 0.14685431 -0.16964254 0.05436477 -0.058325205 0.13436808 0.0036677385 0.13884631
0.12989813 0.06075986 -0.047520984 0.020157268 -0.13929912 0.005384824 -0.0060156477 0.07606614
0.11256643 -0.06830553 0.06707967 0.062109787 -0.00089290924 -0.07860936 0.035534374 0.080245204
-0.038751602 -0.07464128 -0.11447941 0.1606655 0.068082124 0.09991884 0.016236754 -0.06667533
-0.02562099 -0.11076676 0.1025412 0.04340327 -0.02291718 0.0654155 0.06357604 -0.10107059
-0.0030129175 0.10266475 -0.13612486 -0.008880885 0.0637992 -0.010700291 -0.043746047 -0.057432372
-0.1048564 -0.06080502 0.010923139 0.19119234 0.07842943 -0.022974903 0.15148327 -0.121656746
0.11592148 -0.057285745 0.110292464 -0.114058115 -0.13551082 0.16343136 0.1777374 0.09396818
-0.08447267 0.05151742 0.008404793 -0.07116287 -0.06016317 -0.03490658 -0.08712896 0.08930947
-0.06617685 -0.06186401 0.13547908 0.054001644 0.0022939297 -0.041277796 0.17493388 0.06092669
-0.02004617 -0.019180497 0.15677828 0.14512333 -0.15412487 0.07564645 -0.11290791 -0.091386944
-0.07236135 0.089544676 0.16424082 -0.065523334 -0.12136109 0.03356826 -0.10487835 0.08447479
-0.03278446 -0.0056650722 -0.040998995 -0.107437976 0.09902678 0.087981045 0.077575214 0.15320987
-0.053119987 0.19548619 0.109726354 -0.11311422 -0.04618986 0.06564946 -0.011834047 -0.07997658
0.022892771 -0.011100938 0.0015127106 0.03473558 0.11145752 -0.07025375 0.02003584 0.121757984

fc3.bias f4 [32]
00000000: ce86 ed3c 1933 cdbb d2e9 3c3d 001b 0a3e
00000010: c9c8 103e ce12 ee3d 6434 1d3e c824 99ba
00000020: f6c8 86bd 48db b83d c636 b8bb 7162 65bd
00000030: 4456 31bc dc40 083c 27b4 d7bc 16d6 6bbd
00000040: 1d07 cb3d 455d 39bb b9cf dfbd 52ae cfbd
00000050: 11db 143d a7e8 15be 5c83 b3bd 379e 00be
00000060: 6907 21bd e8cc 2cbd d32a e33d 3e7a 9a3d
00000070: fd36 20bc 63ba 753d ef64 7ebc 3120 b7bd
0.028994944 -0.006262195 0.046121426 0.13486862 0.14139093 0.116246805 0.15352017 -0.0011683935
-0.06581299 0.090261996 -0.005621764 -0.056002084 -0.01082379 0.008316245 -0.02633102 -0.057577215
0.09913466 -0.0028284353 -0.10928292 -0.10140671 0.03634173 -0.14639531 -0.08765289 -0.12560354
-0.039313708 -0.0421876 0.110921524 0.07542847 -0.009778735 0.059992205 -0.015526994 -0.08941687

fc4.weight f4 [1, 32]
00000000: 2d9e 0fbe dee5 fbbd 093a 47be 273d 0c3e
00000010: 196a 323e e3a9 243e 9e2a 543e 58c8 e23d
00000020: 7d55 64be 4092 aa3d b02a 473e 2f6b 9dba
00000030: 572d 56be d212 11be 70a3 623e 3492 44be
00000040: c744 1d3e 4973 9cbd 8e62 4abe e2b6 80be
00000050: b8d7 323e 0538 86bd 8c35 d2bd 9184 26be
00000060: 25d5 45be f7c2 40bb 51d7 f13d c359 673e
00000070: 0648 cebd 05e8 59be 2ad1 2bbe 48bd debd
-0.14025183 -0.12299703 -0.19455732 0.13695203 0.17423286 0.16080432 0.20719382 0.11073369
-0.22298236 0.08328676 0.19449878 -0.0012010093 -0.20915733 -0.14167336 0.22132659 -0.19196397
0.15358268 -0.076391764 -0.19764158 -0.2513953 0.17465103 -0.06553654 -0.102641195 -0.16261508
-0.1931959 -0.0029413083 0.118086465 0.22592835 -0.10072331 -0.21279915 -0.16779009 -0.10875946
