cnn_model.pth (torch, 445780 bytes, 9 tensors)

conv1.weight f4 [64, 1, 3]
0.293411 0.33656162 0.10276009 0.16786596 -0.4710605 0.44232056 -0.19417633 0.45744783
-0.49115798 -0.45549577 0.05708167 -0.09198794 -0.12306618 0.44485202 -0.45565554 0.5017346
0.1112873 -0.34676588 0.14069557 -0.1511748 0.41588372 0.18842079 -0.3245013 0.08532367
0.14823861 0.18761843 0.53016055 0.2721835 -0.3055837 0.2604595 0.45290542 -0.44301
-0.46509185 -0.3320962 -0.56946504 0.5126386 0.525391 -0.3628531 -0.37448388 0.17008635
0.5155195 0.39289227 0.4261871 0.3692421 0.04136993 -0.36502624 0.1251464 0.45901236
0.51233816 0.15878654 -0.53377587 0.0029502637 -0.117831424 0.3975289 0.069298945 0.11853653
-0.43885857 0.5836033 0.48576564 -0.1992973 0.47288936 -0.32851163 0.3275826 0.06662431
0.016827824 -0.36890775 0.23045002 -0.5066574 -0.19028856 0.556574 0.32202592 -0.19366609
-0.24165443 -0.21326603 0.45725822 0.0047390624 0.075576685 0.13514458 -0.13255419 0.40437344
0.22225231 -0.29659635 -0.5696422 0.5988661 0.22236046 0.111365534 0.35802662 -0.15961607
0.5169975 0.29250142 -0.35151976 -0.5830126 -0.32582492 0.0019199908 -0.37480482 -0.17746258
0.111449 -0.29930818 -0.4444991 0.44926256 -0.54618 -0.2836205 0.51003283 0.2597622
-0.23265822 -0.010153071 0.028019555 -0.011167284 0.07758977 -0.30924025 0.123027004 -0.39733392
0.5264913 -0.54725623 0.29661727 0.44587559 0.14457859 0.296501 0.17012595 0.17359091
-0.16739297 -0.34250042 0.2573553 0.18855281 0.35758334 0.31236172 0.57861626 0.24415392
-0.3299022 0.19648822 -0.58628017 0.12008915 0.4552774 0.050394353 0.4090738 0.103319615
-0.119148746 -0.3393994 -0.1754867 0.022981733 0.33903304 0.31758583 0.5282814 0.42279628
0.20193286 -0.45420125 0.16648844 0.5752947 -0.4291562 -0.59947234 0.34689108 -0.5039295
0.28353003 0.5873062 0.5186458 -0.32806453 0.16730039 0.57447886 -0.41589388 -0.46884686
0.39110574 0.4597782 -0.18397525 -0.24393274 -0.039368104 -0.4178144 -0.41393283 -0.23962215
0.39912224 -0.49289104 -0.3263116 0.19660623 -0.15369216 0.2727838 0.5301514 -0.08578063
0.2794035 0.14111531 0.1576333 -0.18561797 -0.24122696 0.27760422 0.5096202 -0.31627366
0.46245998 -0.19904187 0.54210865 -0.36705583 0.5446833 -0.18463683 -0.25965196 0.49831152
00000000: f739 963e ce51 ac3e e273 d23d 0ee5 2b3e
00000010: d82e f1be d777 e23e 29d6 46be 9a36 ea3e
00000020: 0f79 fbbe be36 e9be 78ce 693d 2c64 bcbd
00000030: 1f0a fcbd a5c3 e33e af4b e9be ae71 003f
00000040: 99ea e33d 4c8b b1be 8012 103e 91cd 1abe
00000050: b6ee d43e 61f1 403e 0925 a6be 2dbe ae3d
00000060: ddcb 173e 0c1f 403e 9ab8 073f a35b 8b3e
00000070: 7775 9cbe f35a 853e 38e3 e73e 35d2 e2be
00000080: 8520 eebe 8308 aabe 76c8 11bf 493c 033f
00000090: 0680 063f e2c7 b9be 5abc bfbe 1e2b 2e3e
000000a0: 16f9 033f 2d29 c93e 3235 da3e 4d0d bd3e
000000b0: 8473 293d b8e4 babe 6126 003e ab03 eb3e
000000c0: 9828 033f f098 223e 89a5 08bf 3659 413b
000000d0: 9a51 f1bd e888 cb3e 9bec 8d3d 48c3 f23d
000000e0: 12b2 e0be 0767 153f 46b6 f83e 9714 4cbe
000000f0: 8e1e f23e ad32 a8be e8b8 a73e 5472 883d
00000100: 81da 893c 7ae1 bcbe 17fb 6b3e 4db4 01bf
00000110: 01db 42be a27b 0e3f 95e0 a43e 6750 46be
00000120: 4274 77be 6962 5abe c01d ea3e 234a 9b3b
00000130: f3c7 9a3d 5763 0a3e 49bc 07be 090a cf3e
00000140: 1c96 633e 7adb 97be 12d4 11bf 4a4f 193f
00000150: 76b2 633e 9d13 e43d 444f b73e 6572 23be
00000160: f359 043f bfc2 953e 66fa b3be 5040 15bf
00000170: 86d2 a6be 33a8 fb3a 6be6 bfbe c0b8 35be
00000180: 603f e43d ec3e 99be 6395 e3be be05 e63e
00000190: 74d2 0bbf b536 91be 8391 023f 8dff 843e
000001a0: f53d 6ebe 1159 26bc 4489 e53c fcf6 36bc
000001b0: 63e7 9e3d bd54 9ebe 95f5 fb3d 5a6f cbbe
000001c0: 22c8 063f fc18 0cbf 38de 973e ce49 e43e
000001d0: 690c 143e fbce 973e 7f35 2e3e d1c1 313e
000001e0: 1069 2bbe 375c afbe 13c4 833e fd13 413e
000001f0: 2a15 b73e e0ed 9f3e 3220 143f 7c03 7a3e
00000200: f1e8 a8be 3534 493e 7516 16bf 4df1 f53d
00000210: 1f1a e93e 4f6a 4e3d 1f72 d13e 3c99 d33d
00000220: 4204 f4bd c2c5 adbe c9b2 33be 3044 bc3c
00000230: bd95 ad3e 9c9a a23e 733d 073f c178 d83e
00000240: 7dc7 4e3e 118d e8be f27b 2a3e 8346 133f
00000250: 5dba dbbe 0577 19bf b59b b13e 8601 01bf
00000260: d92a 913e b359 163f f9c5 043f 13f8 a7be
00000270: cb50 2b3e 0c11 133f 0bf0 d4be b20c f0be
00000280: 033f c83e 0c68 eb3e 0264 3cbe 81c9 79be
00000290: 7340 21bd c5eb d5be 01ef d3be 825f 75be
000002a0: c059 cc3e 375c fcbe 5012 a7be 2553 493e
000002b0: 7a61 1dbe 51aa 8b3e 01b8 073f c1ad afbd
000002c0: fa0d 8f3e 8880 103e a06a 213e a312 3ebe
000002d0: 3304 77be 2422 8e3e 7876 023f 9fee a1be
000002e0: 8ec7 ec3e a2d1 4bbe a2c7 0a3f beee bbbe
000002f0: 5d70 0b3f 7011 3dbe 1af1 84be b022 ff3e

conv1.bias f4 [64]
0.091437094 -0.13448767 0.2660402 -0.11823019 0.2847935 -0.14873332 0.0046073864 -0.111846276
-0.42947924 -0.52612716 -0.26324138 -0.103239276 0.106079295 -0.11640617 0.40113005 -0.51192594
-0.17846884 0.090264045 0.24513991 0.4942471 0.12584744 0.3355862 -0.022842502 -0.2843323
-0.06719333 -0.08450361 0.10735526 0.013566405 -0.2692271 -0.080097444 -0.30341464 0.018757053
-0.22456664 0.1080023 0.074286245 -0.51581067 -0.215084 0.38255176 -0.29650947 -0.56660813
0.09627152 -0.45735893 0.29164836 -0.47376668 -0.5340345 0.19888538 -0.009717469 -0.38717827
0.50128484 -0.32810497 -0.0469045 0.35764006 0.24429911 -0.0176118 0.058285333 -0.3308808
-0.022050764 0.47943428 0.15640514 -0.38529155 0.34425718 0.1400481 -0.19170791 -0.41727015
00000000: 5f43 bb3d 23b7 09be 6c36 883e ab22 f2bd
00000010: 74d0 913e 8c4d 18be 8ff9 963b a90f e5bd
00000020: b4e4 dbbe 45b0 06bf 93c7 86be 1d6f d3bd
00000030: 1a40 d93d 5c66 eebd eb60 cd3e 940d 03bf
00000040: 89c0 36be 5bdc b83d f505 7b3e f50d fd3e
00000050: 27de 003e f4d1 ab3e 3320 bbbc 0194 91be
00000060: a89c 89bd 3b10 adbd 13dd db3d a045 5e3c
00000070: 22d8 89be 210a a4bd 2a59 9bbe 64a8 993c
00000080: ccf4 65be 4f30 dd3d 6323 983d 2b0c 04bf
00000090: fb3e 5cbe d3dd c33e 17d0 97be 3b0d 11bf
000000a0: 012a c53d f32a eabe ef52 953e 8c91 f2be
000000b0: 7cb6 08bf 9ca8 4b3e 0536 1fbc 3b3c c6be
000000c0: 3454 003f 60fd a7be ef1e 40bd 991c b73e
000000d0: 8c29 7a3e 9f46 90bc 9abc 6e3d 3569 a9be
000000e0: cea3 b4bc 6978 f53e ab28 203e ef44 c5be
000000f0: 7a42 b03e c568 0f3e 144f 44be 6fa4 d5be

conv2.weight f4 [32, 64, 3]
-0.08494885 -0.072246835 -0.06201066 0.06705728 0.05796007 -0.03599969 0.08414197 0.0018503658
0.061451316 0.08536362 0.07716271 0.051627006 0.01177413 0.058725446 -0.007031276 -0.024543012
0.046210118 0.04907639 0.01999418 -0.047447067 -0.030474456 -0.009641022 -0.03948009 0.023526622
0.052656475 0.052122843 0.058030542 0.018088425 0.03746076 0.0063236477 0.051441036 -0.033065043
0.08012854 0.06938759 0.02622588 -0.035316695 0.076553725 -0.019647976 -0.008689113 -0.050833624
0.065128624 -0.040597435 0.004091025 -0.08831399 -0.022721514 0.04837271 0.055182543 0.016947871
0.06393465 0.031801052 -0.019798305 0.010529654 0.077343106 0.037152395 0.016503539 -0.03090219
0.009212738 0.0404093 -0.08410045 -0.024031878 -0.055728473 -0.0066995653 0.069021836 -0.016944846
0.037965085 0.028272675 0.09857184 0.032497477 -0.014300817 -0.05648302 -0.009295616 0.029083783
0.008564767 -0.04115126 0.057883788 0.058904823 0.016554257 0.03716295 0.03765514 0.011373913
0.051262513 0.061928593 0.016303975 0.030994345 -0.041848492 -0.03501705 0.026118595 -0.008982544
-0.012489425 0.0112844575 0.07062748 0.05343061 0.055430714 0.09019468 0.053992838 0.0016175627
-0.031321496 -0.041298546 0.046581745 0.09205541 -0.040002845 -0.047591653 0.042523213 -0.006299943
-0.052771058 -0.00802096 -0.026354417 0.059403792 -0.023820262 -0.03319353 -0.012794895 -0.02811941
-0.04455911 0.036517218 -0.04198562 0.034263477 0.053260166 -0.009576609 0.013334798 -0.044967975
0.002830817 0.010247647 0.07203008 0.053565547 -0.05514098 -0.043227553 0.014895815 -0.0058945725
-0.06121982 0.1166209 0.0092653725 -0.014428509 -0.052440185 0.01116562 0.059034538 0.059729524
0.022002785 0.084052935 0.058992434 -0.045236573 0.04934762 -0.04462162 0.06869829 -0.048110466
0.042300098 0.055318527 0.06790954 -0.03365677 0.007927215 0.04077878 -0.010336591 -0.011438499
0.04146475 -0.06483054 -0.01865504 -0.0049608382 -0.03671611 0.012498951 0.029885408 0.039365288
-0.022667263 -0.013710634 0.034512844 0.022939343 0.027448596 0.04835565 0.048786737 -0.015547534
0.017102975 0.09745401 0.06134074 -0.046980657 -0.06330996 0.030214936 -0.00087891915 -0.060320307
0.04585018 0.03154769 -0.0553631 -0.007090015 0.019984862 0.009196246 -0.01715971 0.0118408175
0.008512802 0.063130595 0.0010786717 -0.063527755 0.01315638 0.051308934 0.07465985 -0.033260643
-0.022156099 0.012476663 0.026593577 -0.075596854 -0.031025128 0.033090904 -0.010069871 0.010346026
0.042287562 -0.05968001 0.001629523 -0.066747405 0.015265404 0.05460907 0.027662493 -0.08302858
-0.027561715 -0.042354275 0.01849603 -0.00012698004 0.084079124 0.056189086 -0.007298476 0.025710741
-0.07920796 -0.07223518 0.0074461387 -0.07045945 -0.027493412 -0.004739947 -0.01585583 -0.05442737
-0.021268686 -0.017385 -0.037968036 0.026441867 -0.05713965 0.01959863 0.054412246 -0.0040267673
0.05894618 -0.019371033 0.09104376 0.068533875 0.061344907 -0.04283348 -0.049660485 -0.070668675
-0.099404365 -0.043919407 -0.00814368 0.07474115 0.03490612 0.015364853 -0.060197648 0.039536934
-0.045052256 -0.04168971 -0.02213725 -0.0064768335 0.028413339 0.03290913 0.056783065 -0.011992616
00000000: aaf9 adbd 26f6 93bd e4fe 7dbd 5455 893d
00000010: 8a67 6d3d 6974 13bd a052 ac3d f987 f23a
00000020: 60b4 7b3d 1fd3 ae3d 7c07 9e3d d776 533d
00000030: 48e8 403c 188a 703d 9e66 e6bb 6d0e c9bc
00000040: d246 3d3d 5304 493d d6ca a33c db57 42bd
00000050: 91a5 f9bc 61f5 1dbc e0b5 21bd e7ba c03c
00000060: 51ae 573d c37e 553d 6fb1 6d3d 2d2e 943c
00000070: 7470 193d 9a36 cf3b d6b3 523d 366f 07bd
00000080: 6f1a a43d 151b 8e3d a8d7 d63c 3da8 10bd
00000090: 33c8 9c3d cbf4 a0bc c85c 0ebc eb36 50bd
000000a0: 2862 853d 7f49 26bd 010e 863b f7dd b4bd
000000b0: 7822 babc 7622 463d 1707 623d 43d6 8a3c
000000c0: 2bf0 823d d241 023d 0e30 a2bc 9284 2c3c
000000d0: 1066 9e3d 1c2d 183d 6e32 873c 9726 fdbc
000000e0: 06f1 163c 3984 253d db3c acbd 80de c4bc
000000f0: 8a43 64bd 0788 dbbb 525b 8d3d ebcf 8abc
00000100: 4781 1b3d 199c e73c 08e0 c93d 131c 053d
00000110: f94d 6abc bd5a 67bd a44c 18bc 1d41 ee3c
00000120: 3d53 0c3c 398e 28bd 8d17 6d3d 2f46 713d
00000130: cb9c 873c 2d38 183d 473c 1a3d a659 3a3c
00000140: a4f8 513d d6a8 7d3d ea8f 853c dae7 fd3c
00000150: 5369 2bbd 0a6e 0fbd aaf6 d53c 852b 13bc
00000160: 72a0 4cbc 72e2 383c 24a5 903d 0eda 5a3d
00000170: 510b 633d fdb7 b83d 9827 5d3d 6604 d43a
00000180: f84a 00bd aa28 29bd 80cc 3e3d 8c87 bc3d
00000190: 06da 23bd 77ef 42bd d22c 2e3d c16f cebb
000001a0: 7726 58bd 586a 03bc 38e5 d7bc 6451 733d
000001b0: b622 c3bc f0f5 07bd aea1 51bc ad5a e6bc
000001c0: 9d83 36bd 1493 153d 1df9 2bbd dc57 0c3d
000001d0: 5527 5a3d 36e7 1cbc 327a 5a3c 5730 38bd
000001e0: 3a85 393b bfe5 273c 8284 933d 8c67 5b3d
000001f0: 82db 61bd 600f 31bd 940d 743c 4227 c1bb
00000200: a2c1 7abd f0d6 ee3d cacd 173c 8e65 6cbc
00000210: 85cb 56bd 01f0 363c 33ce 713d f2a6 743d
00000220: 2f3f b43c f223 ac3d 0da2 713d fc49 39bd
00000230: bb20 4a3d 29c5 36bd b0b1 8c3d 7b0f 45bd
00000240: de42 2d3d ae95 623d 2814 8b3d aedb 09bd
00000250: 26e1 013c a607 273d ce5a 29bc 8b68 3bbc
00000260: f1d6 293d e0c5 84bd 74d2 98bc 878e a2bb
00000270: a263 16bd 66c8 4c3c 3ed2 f43c 7f3d 213d
00000280: b2b0 b9bc 91a2 60bc 575d 0d3d 4aeb bb3c
00000290: e1db e03c 9310 463d 9ad4 473d 16bb 7ebc
000002a0: 8a1b 8c3c f895 c73d 6e40 7b3d ca6e 40bd
000002b0: a7a8 81bd 5085 f73c 4467 66ba 6d12 77bd
000002c0: 66cd 3b3d 2738 013d 6bc4 62bd 5b53 e8bb
000002d0: 4bb7 a33c daab 163c 8592 8cbc fdff 413c
000002e0: 4879 0b3c 9d4a 813d 3762 8d3a d71a 82bd
000002f0: db8d 573c 5129 523d 43e7 983d 503c 08bd
00000300: b580 b5bc eb6a 4c3c c6da d93c 86d2 9abd
00000310: 6928 febc 548a 073d 1afc 24bc 6182 293c
00000320: b935 2d3d 0773 74bd b895 d53a ddb2 88bd
00000330: bf1b 7a3c c3ad 5f3d 749c e23c e30a aabd
00000340: 1bc9 e1bc ad7b 2dbd fc84 973c f225 05b9
00000350: ad31 ac3d 8726 663d 0e28 efbb 559f d23c
00000360: c837 a2bd 0af0 93bd bdfe f33b 0b4d 90bd
00000370: dd39 e1bc 8f51 9bbb 16e4 81bc 3cef 5ebd
00000380: ab3b aebc fd6a 8ebc 5f84 1bbd 9d9c d83c
00000390: 440b 6abd 4e8d a03c 60df 5e3d f9f2 83bb
000003a0: 8d71 713d 00b0 9ebc 2775 ba3d 7d5b 8c3d
000003b0: cc44 7b3d 2972 2fbd cb68 4bbd bdba 90bd
000003c0: 8494 cbbd d6e4 33bd 126d 05bc e311 993d
000003d0: b8f9 0e3d ddbc 7b3c cf91 76bd 7bf1 213d
000003e0: b788 38bd d4c2 2abd 2e59 b5bc 9e3b d4bb
000003f0: 17c3 e83c b9cb 063d 5c95 683d ad7c 44bc

conv2.bias f4 [32]
0.055058837 0.049169675 0.06958735 0.05185463 0.028885059 -0.023618767 -0.013998055 0.04013809
-0.0363907 0.0019943311 -0.020399502 -0.018702023 -0.05820469 0.023672275 0.030357268 0.058557086
-0.054598432 0.03129261 -0.008078549 0.0077479538 -0.0022394124 -0.024079157 0.0204067 0.082715675
0.04406566 0.025686739 -0.08234865 -0.0076644733 0.0037987968 0.086784676 -0.045029692 0.069642484
00000000: 6085 613d 2466 493d d083 8e3d 8565 543d
00000010: 5ca0 ec3c 257c c1bc 1958 65bc d667 243d
00000020: 6a0e 15bd 53b3 023b db1c a7bc fc34 99bc
00000030: 0b68 6ebd 5cec c13c ceaf f83c 8ed9 6f3d
00000040: 9ba2 5fbd ae2c 003d e45b 04bc 8ce2 fd3b
00000050: 1bc3 12bb a741 c5bc f42b a73c d666 a93d
00000060: 327e 343d ff6c d23c 69a6 a8bd 4326 fbbb
00000070: 3cf5 783b 2abc b13d 0e71 38bd b8a0 8e3d

conv3.weight f4 [16, 32, 3]
0.05477271 0.037085433 0.12067254 0.02049112 -0.10536927 0.058040004 0.08930427 0.044400495
-0.032920368 0.009333787 0.037950166 0.10409811 -0.09325686 -0.08938853 -0.0991005 0.075524956
0.039933685 -0.06857939 0.088229746 0.09628156 -0.07490502 0.09035445 -0.052300695 0.030985052
0.07678954 0.10014872 0.082691014 0.007120861 0.053208884 0.004526437 0.07724438 -0.022187307
0.11521202 0.095566586 0.002491288 0.09242648 -0.035065304 0.077061035 0.10328657 0.08907598
0.0022854283 0.0067964843 0.04799255 -0.03487683 0.01710358 -0.073945485 0.0118507985 -0.021540692
0.01227142 -0.05473659 -0.016272224 -0.083713576 -0.03797305 0.10737927 0.015618421 0.03674415
-0.08904205 0.05113646 0.023561897 0.10856291 0.070334025 0.10503008 -0.07381504 0.02026165
0.10502492 -0.017051717 -0.03614373 -0.071431346 -0.04778556 0.09283256 0.023047749 0.074199185
-0.033564236 0.010358348 -0.027433667 -0.0005899307 0.054172933 0.07105228 0.057646625 0.111330435
0.059480503 -0.02476183 0.038603626 -0.073579855 0.12668099 0.07516951 0.015843933 -0.011849059
0.111057974 -0.029646618 -0.038419068 0.029045971 0.06503213 -0.04572123 -0.042789757 -0.060469463
0.10175298 -0.054638475 0.01573021 -0.034117684 0.018160358 0.04443622 -0.0184811 -0.059825625
0.057019755 -0.08820012 0.063626714 0.10437718 0.122361 -0.06504382 0.021932937 0.009737743
0.044604514 0.080875315 0.09978478 0.04402233 0.0108630285 -0.08202451 0.097782314 0.032975353
0.02875257 -0.07171016 0.08967964 -0.06715493 -0.098430105 0.11838699 0.043327395 0.03624947
0.09862712 0.10642159 -0.0563962 0.052867357 -0.008146025 -0.007443265 0.09624356 0.061933313
0.04186916 -0.03846007 -0.011970126 -0.011962422 0.072187334 -0.050425835 0.025782712 -0.026581636
-0.06722713 -0.030690283 -0.020048842 0.10171182 0.100707434 0.079300776 -0.05011174 0.09302074
0.05692321 0.022456028 -0.010919426 0.108360305 -0.056792077 0.099598296 0.028558778 0.028540352
-0.040251497 -0.015834399 0.06593385 0.03184007 0.017583739 -0.011277892 0.010734323 0.0074482276
0.08173246 -0.054989118 -0.03194216 0.047496993 0.07419565 0.039847136 0.028284889 -0.042725008
-0.06321617 -0.096976966 0.07796613 0.040844683 0.021098647 0.045658413 -0.066800095 0.07467758
-0.02853262 0.07823876 0.10632491 -0.046966653 -0.011784637 0.049691565 -0.04604381 -0.021099525
-0.056761034 -0.017415281 0.115134016 0.011990726 0.016350748 -0.12346136 -0.012398105 0.110064015
0.065608986 0.08486698 0.027153984 -0.018747997 -0.0077423337 0.054222018 0.086188935 -0.07624305
-0.029018546 0.11718624 0.09919566 -0.02297504 -0.04260942 -0.0009018019 0.06338199 0.1039158
0.092096545 0.056370728 -0.019030152 -0.025415499 0.036053292 -0.113248944 -0.06045466 -0.023071881
0.0014573543 0.09149609 -0.011767602 0.07550804 0.043610908 -0.07694623 0.070209 0.094787784
-0.07330724 -0.0065937 0.12995756 0.035311285 0.037903704 0.039153777 0.08251093 0.10127616
-0.083523 -0.04279476 -0.015683912 -0.07262367 0.11861097 -0.044166874 0.014215894 0.09546271
-0.08415783 0.076287754 -0.026420997 0.05361753 0.014115912 0.019850899 -0.03876562 -0.010126562
00000000: 5959 603d e5e6 173d 2a23 f73d fedc a73c
00000010: d8cb d7bd 5bbb 6d3d 28e5 b63d 4bdd 353d
00000020: 82d7 06bd bdec 183c a271 1b3d 6431 d53d
00000030: 74fd bebd 5511 b7bd 34f5 cabd d4ac 9a3d
00000040: 8191 233d 5a73 8cbd ccb1 b43d 442f c53d
00000050: ce67 99bd c10b b93d 4139 56bd 5dd4 fd3c
00000060: d643 9d3d c61a cd3d e859 a93d 1d56 e93b
00000070: 8ff1 593d 8152 943b 4d32 9e3d 28c2 b5bc
00000080: 48f4 eb3d 6ab8 c33d e044 233b 184a bd3d
00000090: a3a0 0fbd 2dd2 9d3d e987 d33d 786d b63d
000000a0: 20c7 153b 0bb5 de3b d693 443d 02db 0ebd
000000b0: cf1c 8c3c bb70 97bd da29 423c 1b76 b0bc
000000c0: 110e 493c 7933 60bd 544d 85bc 0672 abbd
000000d0: a189 1bbd aae9 db3d 68e4 7f3c 0981 163d
000000e0: ae5b b6bd 7774 513d e104 c13c 3b56 de3d
000000f0: 490b 903d 031a d73d 572c 97bd c3fb a53c
00000100: 4e17 d73d 0bb0 8bbc 730b 14bd 994a 92bd
00000110: cbba 43bd ff1e be3d a2ce bc3c bef5 973d
00000120: a77a 09bd 0fb6 293c 92bc e0bc 94a5 1aba
00000130: 70e4 5d3d dc83 913d de1e 6c3d 3601 e43d
00000140: d4a1 733d 52d9 cabc d61e 1e3d 09b1 96bd
00000150: a9b8 013e 79f2 993d 23cb 813c 8e22 42bc
00000160: 5d72 e33d 77dd f2bc 505d 1dbd d1f1 ed3c
00000170: 912f 853d 2f46 3bbd 5044 2fbd d4ae 77bd
00000180: de63 d03d 98cc 5fbd a4dc 803c fcbe 0bbd
00000190: 08c5 943c c102 363d ad65 97bc b70b 75bd
000001a0: 8c8d 693d 44a2 b4bd b94e 823d b4c3 d53d
000001b0: 6798 fa3d b235 85bd b4ac b33c 0e8b 1f3c
000001c0: 39b3 363d f5a1 a53d f65b cc3d c250 343d
000001d0: d8fa 313c 77fc a7bd 1842 c83d 2a11 073d
000001e0: 828a eb3c c7dc 92bd f6a9 b73d 8688 89bd
000001f0: b995 c9bd e174 f23d 1178 313d 537a 143d
00000200: 04fd c93d 90f3 d93d b4ff 66bd 718b 583d
00000210: e876 05bc a2e6 f3bb 581b c53d c9ad 7d3d
00000220: ff7e 2b3d 4e88 1dbd 591e 44bc 09fe 43bc
00000230: f4d6 933d 528b 4ebd 4436 d33c bbc1 d9bc
00000240: 61ae 89bd 306a fbbc 783d a4bc 494e d03d
00000250: b33f ce3d 7268 a23d f841 4dbd a881 be3d
00000260: 5028 693d b4f5 b73c 64e7 32bc 02ec dd3d
00000270: cf9e 68bd 31fa cb3d 19f4 e93c 75cd e93c
00000280: c1de 24bd 24b7 81bc 5408 873d bc6a 023d
00000290: c60b 903c e8c6 38bc 04df 2f3c 4310 f43b
000002a0: 5963 a73d 453c 61bd c8d5 02bd 358c 423d
000002b0: e4f3 973d c036 233d b6b5 e73c 6b00 2fbd
000002c0: 7b77 81bd dc9b c6bd b5ac 9f3d c14c 273d
000002d0: 12d7 ac3c 5104 3b3d 7dce 88bd 8ff0 983d
000002e0: 3ebd e9bc a53b a03d e0c0 d93d 1b60 40bd
000002f0: 5a14 41bc 6289 4b3d 6f98 3cbd e9d8 acbc
00000300: 427e 68bd 7eaa 8ebc 62cb eb3d c074 443c
00000310: 01f2 853c 4fd9 fcbd 6c21 4bbc 3e69 e13d
00000320: 015e 863d bdce ad3d 0872 de3c 6695 99bc
00000330: 67b3 fdbb e817 5e3d d383 b03d 5125 9cbd
00000340: 4db8 edbc 57ff ef3d 1827 cb3d 2736 bcbc
00000350: 3787 2ebd e766 6cba 6bce 813d cfd1 d43d
00000360: 1d9d bc3d fee4 663d 1fe5 9bbc 2a34 d0bc
00000370: 9eac 133d 10ef e7bd 4e9f 77bd 3e01 bdbc
00000380: b204 bf3a 4d62 bb3d e6cc 40bc f6a3 9a3d
00000390: 5aa1 323d fc95 9dbd bcc9 8f3d 1920 c23d
000003a0: 1b22 96bd f70f d8bb 9813 053e 91a2 103d
000003b0: ea40 1b3d b65f 203d 7efb a83d e069 cf3d
000003c0: 1b0e abbd 8f49 2fbd 8c7b 80bc b8bb 94bd
000003d0: 4fea f23d 53e8 34bd c8e9 683c f481 c33d
000003e0: f15a acbd c13c 9c3d d970 d8bc 0e9e 5b3d
000003f0: 6d46 673c 5a9e a23c b3c8 1ebd e1e9 25bc

conv3.bias f4 [16]
-0.06382794 -0.020693528 -0.007216702 0.050497662 0.078001656 -0.054382164 0.04264164 0.102825604
0.0627965 -0.02142207 0.020306965 -0.08541898 -0.08007677 -0.013278414 -0.02209068 -0.050797835
00000000: 39b8 82bd 7985 a9bc 167a ecbb a3d6 4e3d
00000010: 55bf 9f3d d5bf 5ebd 00a9 2e3d 3b96 d23d
00000020: 749b 803d 567d afbc cb5a a63c 25f0 aebd
00000030: 4aff a3bd b48d 59bc 84f7 b4bc 6411 50bd

fc1.weight f4 [64, 1600]
-0.021686552 0.008645105 -0.02735509 0.024977986 -0.012203375 0.014706141 -0.022769 0.009445782
0.0025344277 0.0006337008 -0.00704708 -0.0236591 0.014105444 0.00014088389 -0.011143398 -0.023611745
-0.017467419 -0.0051433216 -0.00941234 -0.024484975 0.016699167 0.012127848 -0.0050256844 0.00507865
-0.014606511 0.0037973335 -0.0019088825 0.0040781125 -0.008034412 -0.010165591 0.017719973 0.032343432
0.010525665 0.0023874666 0.011462668 0.0296275 0.030400177 0.023443762 0.025818272 0.027139856
0.011200666 0.019989692 0.00902896 -0.0177142 0.0019266617 0.05839117 0.056114417 0.003509001
0.015702885 -0.0011091365 0.0063004913 -0.040561438 -0.013242006 -0.006673415 -0.028447438 -0.02153766
-0.026912637 -0.038488857 -0.027783357 -0.019261997 -0.00077729276 0.0025031245 -0.013120792 0.021675205
-0.026383525 -0.009172939 0.005955487 -0.0047065546 0.0083071785 -0.0117881335 0.009194163 0.013482983
0.008996699 -0.002292586 -0.03430121 0.024277458 -0.02014833 -0.03732916 0.009101114 -0.041962102
-0.020798704 -0.02131698 -0.027892457 0.010252204 -0.02483409 0.0076103667 0.0064537637 -0.020349633
-0.004676162 0.00074159325 0.014912116 -0.022522056 -0.05078715 -0.030042317 -0.02058712 -0.016289365
-0.0030369863 -0.015163937 -0.008601699 -0.012117977 0.01715386 0.02197725 0.030169148 7.1437484e-05
0.0007789929 -0.0020630308 0.0058230287 0.029100278 0.020911075 0.014523527 0.018323492 -0.012704272
-0.003001624 0.022334028 0.00023433482 0.027479226 -0.015564832 0.018377671 0.026422441 0.020348463
0.0035475036 0.009464365 -0.003685807 0.034275845 -0.0014301608 -0.009769647 -0.004469986 0.021757303
0.02029962 0.0013327681 0.04687284 -0.002564597 -0.0051253396 0.042889763 0.025157174 -0.023462255
0.017193835 0.022149164 0.028799616 0.034568604 0.014926612 0.025561374 -0.027225073 0.032291315
0.0542496 0.031246508 0.016905747 0.00076669356 0.04150398 -0.0447596 0.036430005 -0.045664765
-0.038949307 -0.008678142 -0.010113025 0.005310842 -0.016748056 0.039617166 -0.012055871 0.013572181
0.014953266 0.01504507 0.021702416 -0.036142092 -0.015883988 0.01033417 0.02759596 -0.005433723
-0.0029994284 0.022266842 0.005381314 0.020590773 -0.015456868 0.0065852385 0.0012882283 -0.011298819
0.019545348 0.043041736 -0.033878468 0.03618325 -0.0028882928 0.032547 -0.021984762 0.0019785385
0.03511 -0.03064798 0.012175344 -0.03832689 -0.019791143 -0.02254817 -0.0022368063 0.013883015
0.0008193836 0.038222242 -0.018828196 -0.02479695 0.031435594 -0.01533702 -0.015471263 -0.0108988555
0.011717951 -0.017107956 0.004914799 0.0075296485 0.046686303 0.038497183 0.023603912 -0.011428636
-0.012100305 -0.02369941 -0.023005852 -0.038992785 -0.03861288 -0.012175678 -0.050458103 -0.016758
-0.02822731 -0.046405237 -0.031969856 0.006006738 0.011675413 -0.0028905761 0.024584742 0.010435499
0.00989828 -0.011857409 -0.0103445435 -0.034413088 0.03126847 0.014723011 0.017244799 0.056574613
0.008257533 0.0113282 0.009851865 0.04707987 0.006750395 -0.0069574453 -0.03205424 0.044189002
0.05185079 0.050597955 0.019438392 0.008400803 0.01528579 0.014693965 0.017877446 0.048214633
0.004534518 0.013409272 0.0032743758 0.004736355 -0.015607273 -0.017054377 -0.026793491 0.028066399
00000000: ffa7 b1bc 33a4 0d3c c817 e0bc a29e cc3c
00000010: aaf0 47bc 07f2 703c 0e86 babc 7bc2 1a3c
00000020: a418 263b f11e 263a 31eb e6bb bbd0 c1bc
00000030: 851a 673c 3bba 1339 cc92 36bc 6b6d c1bc
00000040: d517 8fbc 4f89 a8bb 3736 1abc b794 c8bc
00000050: b1cc 883c e2b3 463c 7fae a4bb ce6a a63b
00000060: 2650 6fbc afdc 783b 7833 faba b0a1 853b
00000070: c4a2 03bc 948d 26bc 7a29 913c 8c7a 043d
00000080: d773 2c3c 0b77 1c3b eacd 3b3c 5fb5 f23c
00000090: cb09 f93c 220d c03c d780 d33c 6754 de3c
000000a0: 0083 373c 6cc1 a33c 34ee 133c 5f1d 91bc
000000b0: 0a88 fc3a 942b 6f3d 3bd8 653d 45f7 653b
000000c0: 56a3 803c 7260 91ba 5a74 ce3b c023 26bd
000000d0: 00f5 58bc aaac dabb 9a0a e9bc bf6f b0bc
000000e0: e477 dcbc 7ea6 1dbd ec99 e3bc 56cb 9dbc
000000f0: 3cc3 4bba 760b 243b 97f8 56bc 3390 b13c
00000100: 4322 d8bc 184a 16bc 3f26 c33b 7139 9abb
00000110: d51a 083c 0423 41bc 1da3 163c bbe7 5c3c
00000120: e466 133c 363f 16bb 6d7f 0cbd 85e1 c63c
00000130: 1c0e a5bc 76e6 18bd d71c 153c 74e0 2bbd
00000140: 0b62 aabc f2a0 aebc b97e e4bc dcf8 273c
00000150: dd70 cbbc 6260 f93b 187a d33b 46b4 a6bc
00000160: 7d3a 99bb 7b67 423a f351 743c 2d80 b8bc
00000170: 3006 50bd 4e1b f6bc 52a6 a8bc 4671 85bc
00000180: 2d08 47bb 2972 78bc 24ee 0cbc 7b8a 46bc
00000190: 4086 8c3c a209 b43c 4a25 f73c b5d0 9538
000001a0: 5435 4c3a ea33 07bb 1bcf be3b b563 ee3c
000001b0: b44d ab3c 16f4 6d3c 261b 963c 9425 50bc
000001c0: e5b6 44bb daf5 b63c c6b7 7539 1d1c e13c
000001d0: a303 7fbc c58c 963c e073 d83c d2b1 a63c
000001e0: 3c7d 683b 6d10 1b3c 958d 71bb d464 0c3d
000001f0: 3c74 bbba df10 20bc f678 92bb 5f3c b23c
00000200: 644b a63c 47b0 ae3a bcfd 3f3d cc12 28bb
00000210: 77f2 a7bb 2dad 2f3d 6b16 ce3c ea33 c0bc
00000220: 16da 8c3c 2a72 b53c 2ced eb3c cf97 0d3d
00000230: c08e 743c 1666 d13c 1e07 dfbc e643 043d
00000240: d434 5e3d adf8 ff3c ec7d 8a3c effb 483a
00000250: 1400 2a3d d855 37bd a137 153d fa0a 3bbd
00000260: 4f89 1fbd c42e 0ebc 1ab1 25bc 9206 ae3b
00000270: 3833 89bc 9c45 223d fd85 45bc da5d 5e3c
00000280: 8bfe 743c 997f 763c 44c9 b13c bb09 14bd
00000290: 231f 82bc a750 293c ec10 e23c 5f0d b2bb
000002a0: 0f92 44bb f468 b63c bc55 b03b fbad a83c
000002b0: ce3e 7dbc fcc8 d73b c5d9 a83a af1e 39bc
000002c0: 911d a03c 884c 303d 26c4 0abd e334 143d
000002d0: 8349 3dbb 0150 053d 6319 b4bc 5eaa 013b
000002e0: 81cf 0f3d 7911 fbbc 187b 473c a8fc 1cbd
000002f0: 0921 a2bc f1b6 b8bc 6297 12bb 9675 633c
00000300: e7cb 563a ed8e 1c3d 973d 9abc f922 cbbc
00000310: 9cc2 003d 2048 7bbc 2e7b 7dbc 1d91 32bc
00000320: a6fc 3f3c fc25 8cbc 520c a13b 45bb f63b
00000330: 233a 3f3d 39af 1d3d fe5c c13c 2c3f 3bbc
00000340: 5c40 46bc 4425 c2bc c576 bcbc e6b6 1fbd
00000350: 8a28 1ebd 7f7c 47bc 28ad 4ebd 1348 89bc
00000360: f63c e7bc 6b13 3ebd d3f2 02bd 2cd4 c43b
00000370: 3b4a 3f3c d26f 3dbb f165 c93c a8f9 2a3c
00000380: 652c 223c 9445 42bc 297c 29bc bdf4 0cbd
00000390: 5e13 003d c938 713c f744 8d3c c8ba 673d
000003a0: 9b4a 073c ea99 393c b769 213c d2d6 403d
000003b0: 6b32 dd3b 48fb e3bb 4f4b 03bd 87ff 343d
000003c0: 7e61 543d cd3f 4f3d 433d 9f3c 86a3 093c
000003d0: 4071 7a3c f5be 703c b973 923c b57c 453d
000003e0: 4b96 943b 90b2 5b3c e996 563b 6d33 9b3b
000003f0: a6b5 7fbc 9fb5 8bbc 067e dbbc 81eb e53c

fc1.bias f4 [64]
0.029463073 0.019003697 0.015540139 -0.007421416 0.0025872292 0.035784833 0.015913758 -0.00016115546
0.0010359688 0.036608443 0.006424621 -0.0041814693 0.006147144 0.007726785 -0.011949938 0.022463378
0.01045758 0.016779663 0.0048471815 0.011662907 -0.02311 0.035151847 0.0042909076 -0.00052063557
-0.011603343 0.0100988345 -0.01000053 0.028819928 0.01661356 0.018777138 -0.025982149 -0.0032051555
0.037798233 0.028985126 0.043241896 -0.009600486 -0.004457001 -0.0026077728 0.015955247 0.013341446
-0.022055384 -0.0030954962 0.036671165 -0.007782568 -0.008015404 0.0012696182 0.038603038 -0.003012299
-0.016279304 -0.014550254 0.0075455047 0.0077092666 -0.00064631074 -0.021016585 -0.009414681 0.012875109
0.02069187 0.013889613 0.022838552 0.005790203 0.015227399 -0.0060368488 -0.020115338 0.013240996
00000000: 8b5c f13c a4ad 9b3c 119c 7e3c 5a2f f3bb
00000010: 818e 293b 1e93 123d 925d 823c d7fb 28b9
00000020: 58c9 873a bcf2 153d a185 d23b b504 89bb
00000030: fb6d c93b f830 fd3b acc9 43bc 1e05 b83c
00000040: 4556 2b3c 8175 893c 1bd5 9e3b c715 3f3c
00000050: 2f51 bdbc 62fb 0f3d be9a 8c3b 437b 08ba
00000060: f31b 3ebc 9575 253c 43d9 23bc c517 ec3c
00000070: 2919 883c 83d2 993c 84d8 d4bc 960d 52bb
00000080: 52d2 1a3d 3772 ed3c 6a1e 313d 5b4b 1dbc
00000090: 090c 92bb 2be7 2abb 94b4 823c 1596 5a3c
000000a0: 7ead b4bc cfdd 4abb 8134 163d ea04 ffbb
000000b0: 0b53 03bc 5169 a63a 381e 1e3d fe69 45bb
000000c0: 2d5c 85bc 3064 6ebc 4840 f73b 049e fc3b
000000d0: 2e6d 29ba f92a acbc 0940 1abc 1ff2 523c
000000e0: ff81 a93c 4291 633c ea17 bb3c bebb bd3b
000000f0: 577c 793c c2d0 c5bb ecc8 a4bc c3f0 583c

fc2.weight f4 [1, 64]
0.051358134 0.13364443 0.1165591 0.05966534 0.08436087 0.11945515 -0.12414824 -0.10862595
0.096059605 0.058414843 0.085200556 0.13303578 0.029440388 -0.09117677 -0.07900996 -0.08665362
-0.056475367 0.0408287 0.060195703 -0.1114364 0.028078651 0.10069325 0.05214332 -0.14295626
-0.12342815 -0.100460865 -0.085234985 0.12076178 0.13426495 -0.11663126 0.09494045 -0.031749967
0.04978584 0.06699016 0.051757857 0.1093509 -0.040293075 0.031681597 -0.11558419 0.13272184
-0.03418211 -0.10353035 0.13962981 -0.110410646 0.15039128 0.14880991 0.039600108 -0.10471007
-0.054768194 -0.12467433 -0.028375417 0.10559025 -0.09204203 0.014246581 -0.07531507 -0.047940176
-0.068864055 0.07123678 0.046704367 -0.02851735 -0.11012872 0.10217786 -0.14127533 -0.06542192
00000000: e85c 523d 16da 083e 8ab6 ee3d a563 743d
00000010: 64c5 ac3d e7a4 f43d 6f41 febd 4877 debd
00000020: e6ba c43d 6744 6f3d a17d ae3d 883a 083e
00000030: f82c f13c e3ba babd f9cf a1bd 7477 b1bd
00000040: b752 67bd ff3b 273d c58f 763d c438 e4bd
00000050: 3305 e63c 4338 ce3d 3c94 553d 2063 12be
00000060: e6c7 fcbd 6dbe cdbd ae8f aebd f451 f73d
00000070: c07c 093e 5fdc eebd 2370 c23d 410c 02bd
00000080: 3dec 4b3d 2332 893d 0c00 543d 5df3 df3d
00000090: 5a0a 25bd 90c4 013d 67b7 ecbd 3ce8 073e
000000a0: 8a02 0cbd b807 d4bd 1efb 0e3e fa1e e2bd
000000b0: 2c00 1a3e a061 183e b933 223d 3c72 d6bd
000000c0: 9d54 60bd 4155 ffbd 9073 e8bc b33f d83d
000000d0: 8880 bcbd 7e6a 693c ca3e 9abd eb5c 44bd
000000e0: 9908 8dbd 97e4 913d 144d 3f3d 389d e9bc
000000f0: 2b8b e1bd a042 d13d 7baa 10be edfb 85bd
